data.pth (torch, 4586 bytes, 6 tensors)

l1.weight f4 [8, 35]
0	0x3e0f2207	0.13977824
1	0x3ee7d26c	0.45277727
2	0xbf05d16e	-0.5227269
3	0xbe72a066	-0.23694
4	0xbeb7caed	-0.35897008
5	0x3f684873	0.9073555
6	0x3ebdafdd	0.37048236
7	0xbe02fd34	-0.12791902
8	0x3f1f67e8	0.62267923
9	0x3f319696	0.693704
10	0xbca4c583	-0.020113712
11	0x3ef3504d	0.47522202
12	0x3ea1aec3	0.31578645
13	0x3f359a52	0.709386
14	0xbddea1ba	-0.10870691
15	0x3df21c4c	0.118218035
16	0x3e43c1b9	0.19116868
17	0xbe3d9e37	-0.18517385
18	0xbe57ce98	-0.21074903
19	0x3dd04b4e	0.10170613
20	0xbdd42f64	-0.103606015
21	0x3f31795f	0.6932582
22	0x3e87ee75	0.26549116
23	0x3d9c5e03	0.07635119
24	0xbea55b6f	-0.3229632
25	0x3ded3919	0.11583156
26	0xbe9a7600	-0.30168152
27	0x3da18a9d	0.078877665
28	0x3f0105ac	0.5039928
29	0xbf2e8dfd	-0.68185407
30	0xbc3c8d97	-0.011508367
31	0x3e8b6293	0.27223644
32	0x3dfc94f3	0.12333097
33	0x3d8a29b3	0.06746235
34	0x3ea001f4	0.3125149
35	0x3e9f6a33	0.3113571
36	0xbc4791e7	-0.012180782
37	0xbf124dd5	-0.5715001
38	0xbe3a002c	-0.18164128
39	0x3ed428d0	0.41437387
40	0xbed145c3	-0.40873536
41	0x3ee1e155	0.44117227
42	0xbec729f8	-0.38899207
43	0xbe2832fd	-0.164257
44	0x3ec54e46	0.3853628
45	0xbe22e679	-0.15908231
46	0x3e8dcdfd	0.2769622
47	0x3f0682e3	0.5254347
48	0xbed57431	-0.4169021
49	0x3ec56b5b	0.38558468
50	0x3f45c6a4	0.77256227
51	0x3f45efe4	0.7731917
52	0xbbf7c0d3	-0.0075608282
53	0x3de37e50	0.111080766
54	0xbd5d9b88	-0.054103404
55	0x3eb8419a	0.3598755
56	0xbe845ee9	-0.2585366
57	0x3e3e2f7a	0.18572798
58	0x3f083e70	0.5322027
59	0x3ecd44c7	0.40091535
60	0xbe191c55	-0.14952214
61	0xbefb1d7a	-0.49045926
62	0xbe768b66	-0.24076614
63	0xbeaef5a6	-0.3417179
64	0x3f4e3ac6	0.8055843
65	0x3ea07810	0.313416
66	0x3eab0fe3	0.33410558
67	0x3e4f319d	0.2023377
68	0x3dbf17d0	0.09330714
69	0x3e9cc37f	0.30617902
70	0xbd0bb2a3	-0.034105908
71	0x3f0a4341	0.5400887
72	0x3f1fc5e3	0.62411326
73	0x3f537289	0.8259664
74	0xbef1808b	-0.47168383
75	0xbf12b666	-0.5730957
76	0x3efda15c	0.4953717
77	0x3eda6e8c	0.42662466
78	0xbd297798	-0.04137382
79	0x3efca6aa	0.49345905
80	0x3f17f51f	0.593584
81	0x3dc1f22e	0.0947002
82	0x3ce11796	0.027477067
83	0xbf1adf8d	-0.6049736
84	0xbdee29ba	-0.116290525
85	0xbc00f209	-0.007870206
86	0x3a8fc137	0.0010967617
87	0x3f156a68	0.5836549
88	0x3ebebf24	0.37255204
89	0x3f0350c2	0.512951
90	0xbef2a55a	-0.47391778
91	0xbea1fa9b	-0.3163651
92	0x3f1ce8bf	0.6129264
93	0x3c206906	0.009790665
94	0xbe1dae93	-0.15398626
95	0x3ece1b2a	0.402551
96	0x3f791245	0.972935
97	0x3ef6249c	0.48074806
98	0xbe0ab183	-0.13544278
99	0xbf1adc4e	-0.6049241
100	0x3f2202b1	0.63285357
101	0xbd72f183	-0.059312355
102	0xbe2e2e0e	-0.17009756
103	0x3f1e5843	0.61853427
104	0xbe17ddc9	-0.14830698
105	0x3e8b9212	0.2725988
106	0xbe4d6a1b	-0.20060007
107	0x3f198e79	0.5998302
108	0x3e53c1c2	0.20679381
109	0x3f154a7c	0.5831678
110	0xbdc4e4c5	-0.09613947
111	0xbea598cf	-0.32343146
112	0x3f0af498	0.5427947
113	0xbd2b5731	-0.0418312
114	0xbec16061	-0.37768844
115	0x3d611762	0.05495394
116	0xbed091e1	-0.40736297
117	0x3de5e063	0.11224439
118	0xbdfb5e08	-0.122737944
119	0xbc48ab16	-0.012247821
120	0x3d17abf5	0.037029225
121	0x3d42688d	0.04746299
122	0xbd253853	-0.040336918
123	0x3ef2231f	0.4729242
124	0x3da0d076	0.07852261
125	0x3eaee48f	0.3415875
126	0xbe1fa4e4	-0.15590245
127	0xbe0432cc	-0.12910002
128	0x3e24b6b5	0.16085322
129	0x3f0b2573	0.5435402
130	0xbd2823d8	-0.04104981
131	0x3f05d552	0.52278626
132	0x3d412730	0.047156513
133	0xbd902fdf	-0.07040381
134	0x3f3cd780	0.73766327
135	0xbdacafd2	-0.084319726
136	0x3e70be2f	0.2351005
137	0x3e96c188	0.29444528
138	0x3d83b38b	0.064307295
139	0x3ed32215	0.4123694
140	0x3eefbf5b	0.4682568
141	0x3f2e69b9	0.6813007
142	0xbf4b4d20	-0.7941456
143	0xbcc4676b	-0.023975095
144	0xbe9d7d30	-0.30759573
145	0xbec9c6f6	-0.39409608
146	0x3f0caeec	0.5495441
147	0xbec65611	-0.38737538
148	0x3c40b11f	0.011760979
149	0x3f3a217d	0.7270735
150	0x3d9fb9c7	0.07799106
151	0x3f1221c1	0.57082754
152	0x3f112576	0.56697786
153	0xbec1bd0f	-0.37839553
154	0x3f436e33	0.76340026
155	0x3f1d9c6a	0.61566794
156	0x3ee1b24c	0.44081342
157	0x3e5a20bc	0.2130155
158	0x3e4ccfa5	0.20001085
159	0x3eb675d7	0.3563678
160	0xbeb0b4ce	-0.34512943
161	0xbdbe4269	-0.092900105
162	0x3ecbb1bf	0.39784047
163	0x3ea2ba1d	0.31782618
164	0xbe14a620	-0.14516497
165	0x3dcba031	0.099426635
166	0xbf0f7988	-0.56044817
167	0x3da4f430	0.080543876
168	0x3dea2826	0.11433439
169	0xbee7d663	-0.45280752
170	0x3f0a6a1d	0.54068166
171	0x3f10491e	0.5636157
172	0x3f069b17	0.525804
173	0x3e4d9066	0.20074615
174	0xbdfb0639	-0.12257046
175	0x3f02f58d	0.5115593
176	0xbe073797	-0.132048
177	0xbeaa0ad6	-0.33211392
178	0xbe8af98b	-0.2714351
179	0x3cea7e0f	0.028624563
180	0xbebdac34	-0.37045443
181	0x3c85e115	0.016342679
182	0xbd936a6a	-0.07198031
183	0x3ca56690	0.020190507
184	0xbea1d8e0	-0.31610775
185	0xbe1d71af	-0.15375398
186	0xbdc86914	-0.09785667
187	0x3ed5fb30	0.41793203
188	0xbf00b9f7	-0.5028376
189	0x3f37bd4f	0.71773237
190	0x3f169a75	0.5882943
191	0x3f331a62	0.6996213
192	0xbe979c7c	-0.29611576
193	0x3e035d05	0.12828453
194	0x3df0021b	0.117191516
195	0xbdcee670	-0.10102546
196	0xbe6dcb78	-0.23222148
197	0x3d28d933	0.041222762
198	0x3ec868d7	0.39142486
199	0xbe15a482	-0.14613536
200	0xbad86373	-0.001650913
201	0xbeaa1662	-0.33220202
202	0xbe7bbbb8	-0.24583328
203	0xbd21fdb7	-0.039548602
204	0xbef156ef	-0.47136638
205	0xbe1b9260	-0.15192556
206	0x3e7fbc94	0.2497428
207	0x3e76fc00	0.24119568
208	0xbd6da1cc	-0.05801563
209	0xbeab0347	-0.33400938
210	0x3e846bee	0.25863594
211	0xbf0268ca	-0.50941145
212	0xbe2f5fe2	-0.1712642
213	0xbeb52fec	-0.35388124
214	0x3f16a42f	0.58844274
215	0x3e34e34a	0.17664829
216	0xbe67e072	-0.22644213
217	0xbe7f881e	-0.24954268
218	0x3e206bec	0.15666169
219	0xbe3d4346	-0.18482694
220	0xbe45c193	-0.19312124
221	0x3e1de1ef	0.15418218
222	0x3ea97036	0.33093423
223	0x3d926c57	0.071495704
224	0x3effe897	0.4998214
225	0x3ec97362	0.39345843
226	0x3e9cffa8	0.306638
227	0xbe7625a8	-0.24037802
228	0x3e54d401	0.20783998
229	0xbe4fa6af	-0.20278428
230	0x3ec370f3	0.3817211
231	0x3e15c186	0.14624605
232	0xbe928d6a	-0.28623515
233	0x3e847b96	0.2587554
234	0x3edd98bb	0.43280587
235	0xbd87c482	-0.06629278
236	0xbe9b94f2	-0.30387074
237	0xbe5bb3db	-0.21455328
238	0x3e3d3f1a	0.18481103
239	0x3f0795c3	0.52962893
240	0xbd97e8b0	-0.074174285
241	0x3eb6ebb5	0.35726705
242	0x3dcb39d4	0.09923139
243	0xbdc98780	-0.09840298
244	0x3f1b72b2	0.60721886
245	0x3ed505bc	0.41605937
246	0x3f2d5dd2	0.67721283
247	0xbf1bd0ec	-0.60865664
248	0xbe870f89	-0.2637904
249	0xbed31751	-0.41228727
250	0xbece8f5b	-0.40343747
251	0x3f0e2d55	0.5553792
252	0xbf017f6b	-0.5058505
253	0xbe53ecc0	-0.20695782
254	0x3f50fcaa	0.81635535
255	0x3d910944	0.070818454

l1.bias f4 [8]
0	0x3f2e8fe1	0.6818829
1	0x3f365039	0.7121616
2	0x3f1addd7	0.6049475
3	0x3f14006f	0.5781316
4	0x3ee7d47b	0.45279297
5	0x3f41cec9	0.75706154
6	0x3f59bff5	0.8505853
7	0x3f13d89f	0.5775241

l2.weight f4 [8, 8]
0	0xbf66eddf	-0.9020671
1	0x3f3a0df8	0.72677565
2	0xbed0f218	-0.40809703
3	0x3f7be97a	0.9840313
4	0x3db83477	0.08994382
5	0x3f77ac51	0.9674731
6	0x3f0a2b8a	0.53972685
7	0x3f1c8a13	0.61148185
8	0xbea195c9	-0.3155959
9	0x3e79f245	0.24408825
10	0xbd5d6c8e	-0.054058604
11	0xbe357a21	-0.1772237
12	0x3e68afbd	0.22723289
13	0x3c9c92d0	0.019112974
14	0xbd7c721c	-0.06163226
15	0xbe80db97	-0.25167534
16	0xbe451b98	-0.19248807
17	0xbe9b72be	-0.3036098
18	0xbc97b230	-0.018517584
19	0x3debfc48	0.11522728
20	0x3e16d292	0.14728764
21	0x3de43cc4	0.111444026
22	0xbb916900	-0.004437566
23	0xbeb085bf	-0.3447704
24	0x3e1355b5	0.14388163
25	0xbf2db867	-0.678595
26	0x3fb42280	1.4073029
27	0x3f172bcd	0.5905121
28	0x3f0955e3	0.5364668
29	0xbee4ada0	-0.44663715
30	0xbf43bd90	-0.76461124
31	0x3e1c1a69	0.1524445
32	0x3fcc6f22	1.5971415
33	0x3e2ef655	0.17086156
34	0x3c2e76ee	0.010648472
35	0xbf1cd6d5	-0.6126531
36	0x3fab62df	1.3389548
37	0x3f54ef2b	0.8317744
38	0xbce24423	-0.02762038
39	0x3f7b7b0c	0.9823463
40	0xbf923096	-1.1421077
41	0x3f87689b	1.0578798
42	0xbdc0136c	-0.093787044
43	0x3f7b30e0	0.9812145
44	0xbea898ce	-0.3292908
45	0x3f1046f7	0.56358284
46	0x3f006101	0.50148016
47	0x3dc51794	0.09623638
48	0x3f229e9c	0.6352327
49	0x3f418f61	0.75609404
50	0xbf489c32	-0.78363335
51	0x3f8c30d6	1.0952404
52	0xbf0a4158	-0.54005957
53	0x3eb325bc	0.34989727
54	0x3fa690d6	1.301295
55	0xbd065a74	-0.032801107
56	0xbe695b78	-0.22788799
57	0x3f83045d	1.0235707
58	0x3ed24121	0.41065314
59	0xbf84f9f0	-1.0388775
60	0x3f997e41	1.1991655
61	0x3f21e075	0.6323312
62	0x3e745785	0.23861511
63	0x3f798130	0.9746275

l2.bias f4 [8]
0	0xbe93ef7c	-0.2889365
1	0xbe61a6bc	-0.2203626
2	0xbeaea6a3	-0.3411151
3	0x3ef65e21	0.4811869
4	0x3e9b401a	0.30322343
5	0x3ea1c4a3	0.31595334
6	0x3f474b98	0.7784972
7	0xbe432005	-0.19055183

l3.weight f4 [5, 8]
0	0xbf0365e7	-0.51327366
1	0x3c0a27ec	0.00843237
2	0xbe89dd38	-0.2692659
3	0x3f5680e8	0.83790445
4	0xbd8b8a04	-0.06813434
5	0xbed72123	-0.4201747
6	0xbf6a9b18	-0.91642904
7	0xbeb2d0fc	-0.34925067
8	0xbf7a90a7	-0.9787697
9	0xbe69c3ef	-0.22828649
10	0xbe99b592	-0.3002134
11	0xbc40fb4a	-0.011778662
12	0x3f1c9a0a	0.61172545
13	0xbf71f100	-0.9450836
14	0xbf68b991	-0.9090815
15	0x3f307847	0.6893353
16	0xbfb877e4	-1.4411588
17	0xbe824417	-0.25442573
18	0xbe4a98b9	-0.19784822
19	0xbf70a360	-0.9399929
20	0x3f3b9a6a	0.7328249
21	0xbdddb0fd	-0.108247735
22	0x3f697f44	0.91209817
23	0xbfb0de57	-1.3817853
24	0x3eddf85a	0.4335354
25	0x3e8771f8	0.2645414
26	0xbe80073a	-0.25005513
27	0xbf85843d	-1.0430981
28	0x3eca8b20	0.3955927
29	0x3e3157e3	0.17318682
30	0xbd83a867	-0.064286046
31	0x3eb31fec	0.34985292
32	0x3f06c5b9	0.5264545
33	0x3dfb0f38	0.12258762
34	0x3e697606	0.22798929
35	0xbf3372d1	-0.7009707
36	0xbf9cc134	-1.2246461
37	0x3f36e93a	0.71449625
38	0x3f2afc1d	0.66790944
39	0xbf11d557	-0.56966156

l3.bias f4 [5]
0	0x3ee5e51f	0.44901368
1	0xbeb27b58	-0.3485973
2	0x3f0de487	0.5542683
3	0xbf1e4cb9	-0.6183582
4	0xbe9aa08c	-0.30200613
