data.pth (torch, 10346 bytes, 6 tensors)

l1.weight f4 [8, 156]
-0.13325469 0.14295723 0.1500431 0.11721996 0.38454652 -0.3326597 -0.98985875 -0.090773985
-0.06030664 0.48105344 0.21342567 0.23450898 -0.40765795 0.72596323 0.33902496 0.860605
0.40857315 0.16193368 0.36658844 0.7053704 0.16579409 -0.77879333 0.63183343 0.30675638
-0.3948146 -0.37178317 0.403385 -0.69676876 -0.7056157 0.22439769 -0.24443632 1.1418431
-0.012739012 0.3229461 -0.79821485 0.77196115 -1.0760182 0.26327765 0.25823736 0.47933555
-0.6390059 0.33323196 0.066608 -0.027520305 0.71911585 0.7899764 -0.1369519 -0.51043576
-0.18526226 -0.8132784 -0.7779945 -0.5134 0.5631509 0.0680537 -0.13741547 -0.19574487
-0.46120274 -0.4437359 0.43141443 0.13708086 0.3778391 -0.014329796 -0.7783522 0.2267429
0.16234753 0.79262525 -0.41828385 0.73234993 0.76006114 0.43593025 -0.43250042 0.40581545
1.0989785 0.37239617 0.78154993 0.00645423 0.38392282 0.25613052 0.04630522 -0.37053338
-0.16836955 -0.16127487 0.14775944 -0.3171241 -0.21506597 -0.19108644 0.12623718 -0.009753201
-0.35114574 0.16058533 -0.059776384 0.19618191 0.47757003 0.013740097 -0.020629734 0.7138621
-0.37061882 -0.2247616 -0.16474588 -0.31235835 0.34441411 0.65178907 -0.38136292 0.34236947
0.6851727 0.5493012 -0.025679223 -0.23350377 0.21615218 0.4325882 -0.39831027 -0.1450998
-0.65313 0.7996238 -0.24136265 -0.63551766 0.8127482 -0.117033705 -0.6305845 0.24942619
-0.68291754 0.25844568 0.51065075 -0.13705131 -0.689065 0.014396399 -0.6523964 -0.29857922
-0.05702594 0.5227079 0.5978752 0.1268997 0.6927518 -0.38320768 -0.1892879 -0.61964387
0.24714112 0.22763596 -0.7779898 -0.42671302 0.132246 0.6009642 0.1262298 -0.14813267
0.5718231 -0.46850252 0.14376652 0.17669576 0.40162337 -0.07882761 -0.43317613 0.09608668
0.14834577 0.7755538 -0.08897522 0.07323967 0.0169179 -0.3270299 0.4463198 0.17651975
0.14591862 0.8472464 -0.45486343 -0.44013554 0.3572928 0.5541141 0.5789537 0.4667635
0.9784224 0.8035925 -0.09312833 0.76342416 1.0670468 0.13103962 0.45607927 0.76526153
0.6777877 -0.05379484 0.45229283 0.6191662 0.061467446 -0.16493434 1.1077332 -0.4060997
-0.33980036 -0.102694005 0.766054 1.1637529 0.40092486 0.10785711 -0.7636848 0.65654147
-0.30840167 0.45393515 0.18521847 0.57870203 -1.1081085 0.81881744 -0.09993814 0.33547762
-0.5517992 0.1168019 0.22495449 -0.71839786 -0.9080062 -1.2043395 -0.04887531 0.026156323
0.5040068 0.3180827 -0.08027071 -0.4500343 -0.03925151 -0.45542783 0.43158802 0.57556087
-0.3249953 -0.37650904 -0.0030345856 0.33023703 0.21229854 -0.75767684 0.91694653 -0.81750065
-0.79056543 0.9134642 -0.10084415 0.28831246 1.044178 0.5594476 -0.7611792 0.023473874
0.37468734 0.23562391 0.33903122 0.57636976 -0.44669548 -0.32359564 0.43526766 -0.0154125225
0.030326841 -0.5375194 0.1124508 0.7900149 0.26552227 0.5312621 -0.06888796 0.4651359
0.7132483 -0.09569262 0.27704653 -0.551843 0.6178037 0.18402691 0.07106855 0.22412911
00000000: eb73 08be 6163 123e e6a4 193e 0511 f03d
00000010: 48e3 c43e 5f52 aabe 6267 7dbf b6e7 b9bd
00000020: 1804 77bd a34c f63e 428c 5a3e 1f23 703e
00000030: 8bb8 d0be bad8 393f ae94 ad3e 9c50 5c3f
00000040: 8030 d13e f1d1 253e 7bb1 bb3e 2893 343f
00000050: edc5 293e 005f 47bf d6bf 213f 2c0f 9d3e
00000060: 2425 cabe 5d5a bebe 7b88 ce3e 705f 32bf
00000070: 3ba3 34bf 82c8 653e 844d 7abe ea27 923f
00000080: 4ab7 50bc 3159 a53e cf57 4cbf 3f9f 453f
00000090: f7ba 89bf 54cc 863e b037 843e 786b f53e
000000a0: e495 23bf 619d aa3e c669 883d 4372 e1bc
000000b0: fa17 383f e53b 4a3f 1e3d 0cbe ebab 02bf
000000c0: 64b5 3dbe 0333 50bf a62a 47bf 2f6e 03bf
000000d0: a82a 103f bd5f 8b3d a4b6 0cbe 5871 48be
000000e0: c422 ecbe 5a31 e3be 5ae2 dc3e ed5e 0c3e
000000f0: 2074 c13e 85c7 6abc 1742 47bf 4a2f 683e
00000100: 6e3e 263e 7de9 4a3f 4d29 d6be 497b 3b3f
00000110: 5e93 423f 4032 df3e b270 ddbe 0bc7 cf3e
00000120: 54ab 8c3f b6aa be3e a813 483f 017e d33b
00000130: 8891 c43e 8a23 833e 8baa 3d3d 8db6 bdbe
00000140: 1169 2cbe 3d25 25be 404e 173e 175e a2be
00000150: 413a 5cbe 2aac 43be 5244 013e e4cb 1fbc
00000160: 60c9 b3be 7b70 243e 15d8 74bd e9e3 483e
00000170: 0f84 f43e 251e 613c b0ff a8bc abbf 363f
00000180: c0c1 bdbe e827 66be 25b3 28be 6fed 9fbe
00000190: 0c57 b03e a6db 263f 0042 c3be 0d4b af3e
000001a0: 7a67 2f3f 019f 0c3f 3c5d d2bc 9d1b 6fbe
000001b0: ff56 5d3e 337c dd3e 53ef cbbe 0b95 14be
000001c0: 8733 27bf 25b4 4c3f c527 77be 49b1 22bf
000001d0: 4410 503f 5eaf efbd fc6d 21bf 9469 7f3e
000001e0: afd3 2ebf fe52 843e 02ba 023f 2e57 0cbe
000001f0: 9066 30bf e0de 6b3c 7303 27bf 60df 98be
00000200: 0894 69bd 2fd0 053f 590e 193f fff1 013e
00000210: 2f58 313f cc33 c4be b0d4 41be fba0 1ebf
00000220: 9012 7d3e 6719 693e 572a 47bf 217a dabe
00000230: 7f6b 073e cad8 193f 6242 013e 17b0 17be
00000240: 0063 123f 90df efbe 8837 133e bcef 343e
00000250: 94a1 cd3e 5f70 a1bd 43c9 ddbe 18c9 c43d
00000260: f4e7 173e b28a 463f a438 b6bd aefe 953d
00000270: 6897 8a3c 7770 a7be 0784 e43e 98c1 343e
00000280: b16b 153e 24e5 583f dce3 e8be 7259 e1be
00000290: 15ef b63e 6cda 0d3f 4f36 143f a0fb ee3e
000002a0: e479 7a3f 3db8 4d3f 11ba bebd c46f 433f
000002b0: fd94 883f 402f 063e 3983 e93e 2ee8 433f
000002c0: 7f83 2d3f fa57 5cbd ed92 e73e ad81 1e3f
000002d0: 4ac5 7b3d 8ce4 28be 34ca 8d3f 4dec cfbe
000002e0: 50fa adbe 3c51 d2bd 1d1c 443f dbf5 943f
000002f0: 0646 cd3e 30e4 dc3d d980 43bf 1a13 283f
00000300: d3e6 9dbe 306a e83e e9a9 3d3e d125 143f
00000310: 80d6 8dbf 059e 513f 5eac ccbd b9c3 ab3e
00000320: b642 0dbf d635 ef3d 785a 663e ece8 37bf
00000330: 1873 68bf cc27 9abf 7a31 48bd c945 d63c
00000340: 9706 013f bcdb a23e f864 a4bd e56a e6be
00000350: 31c6 20bd d62d e9be 1bf9 dc3e f557 133f
00000360: c965 a6be cbc5 c0be e6df 46bb d414 a93e
00000370: ca64 593e 1cf7 41bf 02bd 6a3f b947 51bf
00000380: 7f62 4abf cad8 693f 6187 cebd b19d 933e
00000390: a0a7 853f f537 0f3f a4dc 42bf 484c c03c
000003a0: 05d7 bf3e 6547 713e 8095 ad3e f88c 133f
000003b0: 45b5 e4be 54ae a5be 67db de3e ce84 7cbc
000003c0: ff6f f83c df9a 09bf 9b4c e63d 6b3e 4a3f
000003d0: 89f2 873e cb00 083f 2115 8dbd 4b26 ee3e
000003e0: 7197 363f 7efa c3bd 0bd9 8d3e 9545 0dbf
000003f0: 6228 1e3f 8d71 3c3e 638c 913d 1a82 653e

l1.bias f4 [8]
0.7780067 0.9284607 0.5608645 0.96579486 0.5163505 1.4514325 0.5670495 0.37971342
00000000: 722b 473f 9aaf 6d3f d194 0f3f 553e 773f
00000010: 8c2f 043f 8ac8 b93f 282a 113f cc69 c23e

l2.weight f4 [8, 8]
2.2139726 1.0269408 1.6457459 1.1834751 0.82610315 -1.0808606 0.64693314 -0.20339815
0.7664526 -1.0320803 0.88449246 1.1715994 1.8545629 0.48315093 -0.69581455 -1.1834643
1.7291983 2.046903 -0.4943231 2.0564432 -1.4204684 0.8278262 -1.326927 -0.6957363
0.36654446 1.8749298 0.5583443 -1.3569027 2.0142498 -0.2754617 1.3411804 2.3669825
-1.240644 -0.11897018 -1.0054199 0.48596656 -1.0037054 2.469305 2.1533113 -0.15320006
-1.7643856 1.4759333 0.28313696 0.57772166 0.5239816 0.4221394 -1.0271921 0.22234727
0.24140118 1.0199713 -2.072014 -1.326361 1.0796384 0.53756285 0.96947944 -0.8678245
-0.35267693 -0.1351354 0.0041686893 -0.1205447 0.31147543 -0.10965307 -0.29532373 -0.30031273
00000000: bab1 0d40 cc72 833f cda7 d23f 1d7c 973f
00000010: 7f7b 533f a459 8abf 699d 253f 9b47 50be
00000020: 3d36 443f 351b 84bf 196e 623f f8f6 953f
00000030: 5162 ed3f 8f5f f73e e720 32bf c27b 97bf
00000040: 5f56 dd3f 7500 0340 eb17 fdbe c49c 0340
00000050: e9d1 b5bf 6bec 533f bed8 a9bf c61b 32bf
00000060: b7ab bb3e b3fd ef3f a7ef 0e3f fdae adbf
00000070: 78e9 0040 5109 8dbe cdab ab3f a47c 1740
00000080: 6ccd 9ebf a3a6 f3bd 99b1 80bf 9cd0 f83e
00000090: 6b79 80bf 1809 1e40 dacf 0940 7ae0 1cbe
000000a0: 63d7 e1bf 62eb bc3f 54f7 903e 91e5 133f
000000b0: a823 063f a822 d83e 087b 83bf 01af 633e
000000c0: df31 773e 6b8e 823f e19b 04c0 32c6 a9bf
000000d0: 9731 8a3f b89d 093f ce2f 783f bf29 5ebf
000000e0: 1292 b4be ef60 0abe 8099 883b 24e0 f6bd
000000f0: b579 9f3e ca91 e0bd ac34 97be 97c2 99be

l2.bias f4 [8]
-0.280434 0.456739 0.9821132 -0.1995237 1.0581864 0.31593746 0.06695157 -0.09936592
00000000: 0c95 8fbe b2d9 e93e c56b 7b3f f14f 4cbe
00000010: a772 873f 8ec2 a13e e81d 893d 5c80 cbbd

l3.weight f4 [16, 8]
-2.2520344 0.88621527 -2.1559694 0.206881 0.31561813 0.5207769 0.80449545 0.21787092
0.10073207 -1.699836 -0.87301975 0.75982493 -1.2129118 0.32731295 -2.986785 -0.26239318
-0.63965887 -2.5815713 -0.411897 -0.029147014 0.18864301 -0.7964006 0.68001795 -0.035855293
-0.524552 -2.5643542 0.71160823 -0.6151652 0.0632436 0.5620161 -1.4752139 0.19799277
0.6900541 -1.8546128 0.62643135 -0.47149584 -1.3458508 -1.5947071 -2.1621966 0.18296942
0.14968282 -0.40057895 0.87171555 -1.8006335 -0.3573546 0.3164796 -2.7015948 -0.14590493
-1.4979901 -0.3591739 -0.28512788 -2.3350627 1.2228307 -1.7762725 0.33726245 0.33592883
0.34723228 0.24687865 -0.28588426 -0.16162017 -2.0873473 0.32993665 -2.4095247 -0.19876315
-1.3882442 -3.1857085 -0.8933005 0.18506429 1.0771974 -2.4273643 -1.3031913 0.28205225
-2.1696 -1.3379139 0.8650607 -2.398333 0.7510593 1.7663345 -2.3429527 0.22106937
0.43483195 1.5353041 0.31582946 -2.1200962 -2.1859972 -2.1197789 -1.5720977 0.14430854
-0.1292824 0.22720957 0.059065398 -0.5198037 -0.4703539 -1.4307746 -0.054885607 -0.16472143
0.34588954 0.1871771 -2.3540444 0.4345461 -0.4080977 -1.5869809 0.075227045 -0.054046422
-0.6060991 -1.6849196 0.39534843 0.3651938 -2.2357306 0.36993226 -0.29684028 -0.31093633
-0.9391815 -2.3084738 -2.3884814 0.6914116 0.12250468 1.8844156 -1.8522223 0.27270535
-3.1633546 -3.8674986 0.07946518 -0.7418375 0.5098115 1.6850184 0.53708345 0.06922051
00000000: 5521 10c0 01df 623f 67fb 09c0 9dd8 533e
00000010: b398 a13e a351 053f 6af3 4d3f 8e19 5f3e
00000020: 9e4c ce3d 3a94 d9bf 397e 5fbf e383 423f
00000030: b240 9bbf 9095 a73e 7c27 3fc0 6658 86be
00000040: afc0 23bf 7738 25c0 2ae4 d2be b8c5 eebc
00000050: a22b 413e e9e0 4bbf a815 2e3f 00dd 12bd
00000060: 0a49 06bf 611e 24c0 f52b 363f 777b 1dbf
00000070: dc85 813d 4ae0 0f3f cfd3 bcbf 9ebe 4a3e
00000080: 63a7 303f f463 edbf ce5d 203f e767 f1be
00000090: d744 acbf 5d1f ccbf 6e61 0ac0 565c 3b3e
000000a0: 7446 193e af18 cdbe c028 5f3f 297b e6bf
000000b0: 2ff7 b6be 9d09 a23e eee6 2cc0 1a68 15be
000000c0: 24be bfbf a4e5 b7be 48fc 91be ab71 15c0
000000d0: b785 9c3f e65c e3bf aaad ac3e ddfe ab3e
000000e0: 6ec8 b13e c2cd 7c3e 6c5f 92be c27f 25be
000000f0: 1997 05c0 75ed a83e a735 1ac0 9188 4bbe
00000100: fcb1 b1bf a6e2 4bc0 57af 64bf 7e81 3d3e
00000110: 9be1 893f f059 1bc0 f9ce a6bf 2769 903e
00000120: bada 0ac0 c340 abbf 9e74 5d3f 4a7e 19c0
00000130: 6c45 403f 4017 e23f f0f2 15c0 0260 623e
00000140: 4ba2 de3e d884 c43f 66b4 a13e a8af 07c0
00000150: 61e7 0bc0 75aa 07c0 7f3a c9bf 9ec5 133e
00000160: 9b62 04be a0a9 683e 8fee 713d db11 05bf
00000170: 3ad2 f0be 9f23 b7bf bbcf 60bd bcac 28be
00000180: 6f18 b13e 5bab 3f3e aaa8 16c0 d47c de3e
00000190: 2ff2 d0be 3122 cbbf a310 9a3d c85f 5dbd
000001a0: 5029 1bbf 72ab d7bf 1c6b ca3e affa ba3e
000001b0: 3616 0fc0 c367 bd3e 73fb 97be 0c33 9fbe
000001c0: 336e 70bf 09be 13c0 e1dc 18c0 5a00 313f
000001d0: bce3 fa3d 8834 f13f 9f15 edbf 09a0 8b3e
000001e0: 6774 4ac0 1985 77c0 a4be a23d 10e9 3dbf
000001f0: 0283 023f afae d73f 4d7e 093f 7cc3 8d3d

l3.bias f4 [16]
-0.03538372 0.099450156 -0.16536322 -0.048861872 -0.12344283 0.053416215 0.1909155 -0.58409905
0.20103282 0.043346994 0.75423825 -0.38404828 -0.3742942 0.1788201 -0.054481164 -0.17689006
00000000: 85ee 10bd 86ac cb3d fa54 29be 6323 48bd
00000010: 98cf fcbd f6ca 5a3d 5a7f 433e 8487 15bf
00000020: 8cdb 4d3e 9e8c 313d c215 413f faa1 c4be
00000030: 7da3 bfbe 9e1c 373e a427 5fbd ab22 35be
