data.pth (torch, 4586 bytes, 6 tensors)

l1.weight f4 [8, 35]
00000000: 0d43 bb3e 8439 0fbc 27df edbe 32a9 8dbe
00000010: 6d34 273f 0531 803e 7696 0fbd edca 2dbe
00000020: 6422 67bc d275 18be 9551 65be f667 4f3f
00000030: dac9 e03e fa01 a23d b445 393f af7f 383f
00000040: adb9 503f 8306 39be 4328 123c 4bc1 5d3d
00000050: 1987 b63e 3bc3 3b3b ae27 d43d 2a29 033f
00000060: 14cf 013f 0cbc dbbc 4b83 99be 85ae 39be
00000070: 154c 9c3d f416 793f c0fe e6bd 99ae 013f
00000080: 73d4 1c3f 1ce0 843d f9b7 0b3f 99bb 0abe
00000090: 241d efbd 817d 513f 9a22 3c3f 47c2 373f
000000a0: dde7 353f 32f1 acbe 6ea4 2c3f 56ac 8d3e
000000b0: 972f dfbe 234d 453e e286 efbe 3480 93be
000000c0: 4499 083f e772 0dbf 5571 0dbf b724 0dbf
000000d0: 6495 533e a64a a43e 8762 d93d 3bc2 0d3f
000000e0: 9ccc 103f e4b1 79be 8064 87be 4ecc 243f
000000f0: 97ee 303e 5ad6 3d3f a632 afbc 8c47 583e
00000100: 3fd3 383f ac1b 87bd 93fa 8cbe 814e 0cbe
00000110: 92de 193e 5f2e d73e d635 b83e a68e 463f
00000120: 94d3 113f 02dc 273f 13f7 edbe cf1a e43e
00000130: b61e b63e d2c7 253f f7ac 023f 5d89 0e3f
00000140: 2c9a 443f 754d a73e 8b49 303e 54b6 e43e
00000150: 3c5c bd3a 384e 183e ecca 3d3e 750d 103f
00000160: 7ba4 7c3e 61ca ab3e 5204 c4be 4676 f73e
00000170: ae5a e93e 2ee6 c03d 9dca 3cbe b48d 073f
00000180: ec63 513f 0372 f83e 5e45 003f 066f 23bf
00000190: a1f9 363f 4db2 af3d 811a 133e ef9b cc3e
000001a0: 9b4b a837 3b0c 2cbe a016 2e3f 1ed3 fabe
000001b0: 5e6a fd3e ad79 b7be c800 163f 15dc bf3e
000001c0: 07fa 963d 3b7c ae3e 6b39 3b3f 5968 073f
000001d0: 9c91 f93e 8c9f b1bc 5dcc c53e e071 67be
000001e0: dd61 b5be 7b21 99be f8cc 873e fd6e 423e
000001f0: 725f a03e c7bc 95be 6261 973e 3810 1b3f
00000200: 5903 17be 18b8 bbbe ff67 ef3e 7881 1b3e
00000210: a067 bc3e 7022 d73e c99e 39bf 5291 233f
00000220: 22a6 113e e7d1 91bd aa35 203f fd24 4cb6
00000230: 1547 fc3e dd7c 43be 87b8 e9be 487f edbd
00000240: 992c 393f 5ba3 38bf dcee b13e b7d4 e3be
00000250: f727 a0be 2451 8d3d 9b55 2dbe 8757 b13e
00000260: 90bf ff3e bca8 38bf 4595 1e3f 1803 063f
00000270: 663e 483f 8489 9abe 682f d53e a003 0fbc
00000280: a9df de3e 325b 19bf 4ba6 493d cfda 123f
00000290: 4796 113f 85a9 b6bd d707 95be a60b 20bd
000002a0: 5b50 a2be 0400 4a3f e7d9 753d e7f2 fc3e
000002b0: 5fb7 a53e 5429 843c 59be 473e 4f7d 18be
000002c0: 7c05 31bd c007 143e 45c7 57bd 58c6 edbd
000002d0: 7aeb 923d 44f0 783d be7e ab3d aa0a df3d
000002e0: 9831 9dbc cedb 223e 7442 dabd 107d 643c
000002f0: 80c1 5bbb 0e89 b33d 13d5 9b3d e0d6 22be
00000300: a2da 213e 0041 dbbd 865e f03d a872 e0bc
00000310: 1e96 023d 9d39 bcbd 902d 78bd 00d9 92bc
00000320: d0b4 03bd a349 2bbe bf8c 2dbd e23c 07be
00000330: d8fe dabc f6c2 243d 20ac a8bd bce5 153e
00000340: df13 cabd af94 bbbd 19a4 f6bd b4cd d5be
00000350: 0764 2ebe b478 e9be 4e54 133f a7e1 103f
00000360: b795 80be 898a 4cbe 7b35 6b3e 5c46 32be
00000370: f341 e3bc 4e13 63be 64b5 50be 6b41 2a3f
00000380: 0073 17bf ff39 e2be f3d5 08bf 8bda a0bd
00000390: e32d 8f3e cd1a 623c e96d 1e3f 968c c03e
000003a0: 56a7 d5bd f389 c6be b432 143f 2477 973c
000003b0: 865c ddbd db8c 0cbe 41c4 a23e 816b 683f
000003c0: bb1b 85be 2ca8 8ebe cacb 22be 1f96 89bd
000003d0: db2f 273f 168d bfbd b006 4cbe 4c3e 613f
000003e0: 7ce3 b63e a003 f3bc 581d 493f aa8a 37bf
000003f0: eed4 183f 1788 023f 3d7d 18bf bc23 023e
0.36574593 -0.00874174 -0.46459314 -0.27668148 0.6531437 0.250374 -0.0350556 -0.16971941
-0.01410732 -0.14888695 -0.22394402 0.81018007 0.43904 0.07910533 0.72371984 0.7206983
0.8153332 -0.1806889 0.008920732 0.054139417 0.35649946 0.0028650302 0.10359131 0.51234686
0.507066 -0.026823066 -0.2998298 -0.1813298 0.07631699 0.9730065 -0.112790585 0.5065704
0.6126167 0.06488058 0.54577595 -0.13548125 -0.1167548 0.8183213 0.734903 0.7178082
0.7105692 -0.33777767 0.674384 0.27670544 -0.43590996 0.19267707 -0.46782595 -0.2880875
0.53358865 -0.5525345 -0.55251056 -0.5513415 0.20662457 0.32088202 0.10614496 0.553745
0.5656221 -0.24384266 -0.26443863 0.64374244 0.17278515 0.741552 -0.021386456 0.21121043
0.72197336 -0.06597075 -0.27534923 -0.13701822 0.1502631 0.42027566 0.35978574 0.77561414
0.5696347 0.6557008 -0.46477565 0.44551703 0.35570306 0.64758027 0.51045173 0.5567835
0.7679775 0.32676283 0.17215554 0.44670355 0.0014447044 0.14873588 0.1853444 0.56270534
0.2467212 0.3355284 -0.38284546 0.48332423 0.45576996 0.09418903 -0.18436666 0.52950597
0.81793094 0.48524484 0.50105846 -0.63841283 0.71474653 0.0857893 0.14365579 0.39962718
2.0062367e-05 -0.1680154 0.68003273 -0.48989195 0.49495214 -0.3583502 0.5859494 0.37472597
0.07371908 0.34079155 0.7313449 0.52893597 0.48743904 -0.021682523 0.3863248 -0.22602034
-0.35426226 -0.29908356 0.26523566 0.18987651 0.3132282 -0.29245588 0.29566485 0.6057162
-0.14747371 -0.3666389 0.4675903 0.15186107 0.3679781 0.4201846 -0.7250791 0.63893616
0.14223531 -0.07120114 0.62581885 -3.0419899e-06 0.4927298 -0.190906 -0.45648596 -0.115965426
0.72333676 -0.7212426 0.34752548 -0.44498226 -0.3128049 0.06900242 -0.16927187 0.3463709
0.49950838 -0.7213247 0.6194652 0.5234847 0.7822021 -0.3018304 0.4163773 -0.008728892
0.43530014 -0.5990478 0.049230855 0.57365125 0.5686993 -0.08919052 -0.29107544 -0.03907361
-0.3170193 0.78906274 0.06002226 0.4940407 0.32366464 0.016132988 0.19506206 -0.14891551
-0.04321812 0.14456081 -0.052680273 -0.11610097 0.0717382 0.06077601 0.083737835 0.10890706
-0.019188687 0.15904161 -0.10657206 0.013945833 -0.0033532083 0.087663755 0.07609 -0.15902281
0.15806058 -0.10705757 0.11736779 -0.027398422 0.031881444 -0.09190676 -0.060590327 -0.01792574
-0.032154858 -0.16727309 -0.042370554 -0.13206819 -0.026732847 0.04022499 -0.08235955 0.14638418
-0.09867071 -0.091592185 -0.12043018 -0.41758502 -0.17030345 -0.45599902 0.57550514 0.5659432
-0.25114223 -0.19974722 0.2296962 -0.17409652 -0.027741408 -0.22175333 -0.20381695 0.6650607
-0.5915985 -0.44184873 -0.5345146 -0.07854184 0.27964696 0.013800335 0.6188646 0.3760726
-0.104323074 -0.38777122 0.57889867 0.018489428 -0.10808663 -0.13725607 0.31790355 0.9078904
-0.2599772 -0.2786268 -0.15898052 -0.067180865 0.65307397 -0.09353082 -0.19924426 0.8798568
0.35720432 -0.029664814 0.785604 -0.7169596 0.59699905 0.50988907 -0.595661 0.12708944

l1.bias f4 [8]
00000000: afee 4c3f 1a70 0d3f 6770 233f a89c 393f
00000010: ada9 383f 4103 c0bd fa77 173f 0b47 4b3f
0.800517 0.5524918 0.6384339 0.72504663 0.72133905 -0.09375621 0.59167445 0.7940528

l2.weight f4 [8, 8]
00000000: d02f 4f3f a50b 5c3f 3c97 47bf 14df cdbe
00000010: 179e 63bf 2e16 55be 4089 933f 56f1 f53e
00000020: 7405 a9be 4495 e7bd 1aa1 5cbe 9bd3 493e
00000030: 1eb3 b0bd 703b 673d 20f9 883e 2e5d 3f3d
00000040: 9541 b2be e47e 833f b1f0 8a3f 02de 6a3f
00000050: fb8c 99bf 5ed7 85be 9153 acbd d92b 953f
00000060: 8aa7 273f e3cc 9fbf 0ebf 0a3f 767e 913f
00000070: cf50 133f 16a8 3b3e f228 9ebe 4996 66bf
00000080: 081f 4abd c078 a6be 111c 65be ee93 5dbe
00000090: 50f9 72be 7644 593e 1c89 85be 671c b23e
000000a0: 981d 203f 0ae5 4f3f ad31 abbe ba5d f7be
000000b0: 3e25 873f 8c3f 64be de3c 0dbd ff11 0a3d
000000c0: 9376 a63e c2a0 753f 7ece 67bf e746 08be
000000d0: 29b6 c93d 3ae9 1e3e 6c6d a63f 692f fe3e
000000e0: fc68 ad3f 6da7 c3be 6cc6 8abe fbf1 a3be
000000f0: 10f8 833f 24a9 96be 3901 013e 3dcd 453f
0.8093233 0.8595527 -0.7796514 -0.40209258 -0.889131 -0.20809242 1.152626 0.48035687
-0.33011973 -0.11307767 -0.2154583 0.19709627 -0.08627914 0.05645317 0.26752567 0.046719722
-0.3481566 1.0273099 1.0854703 0.9174501 -1.1996149 -0.26140875 -0.084143765 1.1654006
0.6549002 -1.2484401 0.54197776 1.1366718 0.5754518 0.18325838 -0.30890614 -0.90073067
-0.049346 -0.32514 -0.22373988 -0.21638462 -0.23727918 0.21217522 -0.2608117 0.34787294
0.62545156 0.8120886 -0.33436337 -0.48313695 1.055824 -0.22289866 -0.034481876 0.03370857
0.3251234 0.9594842 -0.9054946 -0.13308297 0.098491974 0.15518656 1.3002143 0.49645546
1.3547664 -0.38213673 -0.2710451 -0.32020554 1.0310078 -0.2942592 0.12598123 0.77266294

l2.bias f4 [8]
00000000: 63db e63e 1887 bdbd f896 cb3e 0603 2e3f
00000010: 2ee0 19be 8fff 273f 233e 65be daaf 203f
0.45089254 -0.09254283 0.39763618 0.67973363 -0.15026924 0.65624326 -0.22386985 0.6276833

l3.weight f4 [5, 8]
00000000: b6ef 09bf 1159 0e3e 5eb5 653f db1f 27bf
00000010: a04d e33d 5b67 5f3d c401 c6bf cffc 91bf
00000020: c510 07bf d042 f93c ed37 053e 4472 853f
00000030: 7c5a afbe c400 12bf 274a 7cbf e257 0fbf
00000040: 7b26 363f 3537 573d 0984 903e 67d9 46bf
00000050: e08c bfbd 0121 cebe 8590 f53e 3acc fd3c
00000060: c97a 9abe 564f e4bd 3b46 84bf 4c4d 853e
00000070: f856 34be d8b9 1e3f ae6a 80bf bde5 733f
00000080: 73d3 db3e fbc7 b83d c2b4 a3bf 1a0a 94bf
00000090: 99d6 8a3e 13a2 0a3f 774f 633f 1409 c03e
-0.53881395 0.13901164 0.8972987 -0.6528298 0.1109879 0.054541927 -1.5469289 -1.1405276
-0.52759963 0.030427366 0.13009615 1.0425496 -0.34248722 -0.5703242 -0.9855065 -0.55993474
0.71152467 0.052542884 0.28225735 -0.7767548 -0.09353042 -0.40259555 0.47961822 0.030981172
-0.30171803 -0.11147945 -1.0333933 0.26035535 -0.17611301 0.62002325 -1.0032556 0.9527243
0.4293476 0.09022518 -1.2789538 -1.1565583 0.2711685 0.54153556 0.8879313 0.37506926

l3.bias f4 [5]
00000000: bef3 0e3e d78d 643e e0d4 97be abd1 933e
00000010: 29c4 b7be
0.13960168 0.22319733 -0.29654598 0.288709 -0.35891846
