data.pth (torch, 7914 bytes, 6 tensors)

l1.weight f4 [8, 99]
000000 99 85 15 be 99 cd d8 3e 73 b5 f3 be 09 3d 22 3f
       -0.14601745 0.4234436 -0.47599372 0.6337438
000010 a9 e9 b9 be 38 ce c9 3e 73 e7 e8 3e bd 2a 49 3f
       -0.3631108 0.39415145 0.45489082 0.7858084
000020 c5 c7 e7 3e 6c 13 54 3f b8 b4 b9 3e 3d ae 37 be
       0.452696 0.82842135 0.3627069 -0.1793756
000030 46 64 19 3c 31 fa 82 be aa 23 ff be 40 0b 0f 3f
       0.009362286 -0.25581506 -0.49831897 0.5587654
000040 14 ae 85 bd bf f2 05 3f b7 c8 f5 be 1a 2a e1 3e
       -0.065273434 0.52323526 -0.48004696 0.43977433
000050 0d a2 a0 3e 5c b3 00 bd f6 4f 4f 3f 12 e5 1d bf
       0.31373635 -0.03142105 0.80981386 -0.6167766
000060 32 43 8e be 12 4b 9f 3e 71 3b fb 3e 75 fb ac be
       -0.2778564 0.31111962 0.49068788 -0.33785596
000070 3d 1b 31 bf 11 ad f5 bd 19 22 0c 3f 7c 6a c6 3e
       -0.6918219 -0.119959004 0.5473953 0.38753116
000080 11 c6 0c 3f 3e 38 a3 be a8 f4 fd 3e d5 8a 44 3f
       0.54989725 -0.31878847 0.4960072 0.7677434
000090 d9 cb 15 be 0e 03 f3 3e 0e f3 58 be 87 53 0f 3f
       -0.14628543 0.47463268 -0.21186468 0.5598683
0000a0 5f e6 1c 3f 2c 59 d6 bc e5 36 dc be 77 48 dc be
       0.6128902 -0.026165567 -0.4301063 -0.43024036
0000b0 6a 49 dc be 0e 86 d6 be 97 14 c1 3d 5a e3 3c be
       -0.4302476 -0.4189915 0.09427755 -0.18446103
0000c0 6a c9 4f 3e 26 de 17 3f c7 1a 1b 3f 15 9f 38 3f
       0.20291677 0.59323347 0.60587734 0.7211774
0000d0 88 37 d2 bc 57 62 d9 3e a2 c2 99 be 6f 9a af be
       -0.025661245 0.4245784 -0.30031306 -0.3429751
0000e0 5c 8c 96 be c2 31 e0 be 10 d3 03 bf 16 8e 5f be
       -0.2940396 -0.43787962 -0.5149393 -0.21831545
0000f0 85 5f 34 be 7d 25 e7 3e 5e cc d3 3e 89 bf 59 bc
       -0.17614563 0.4514579 0.41366857 -0.013290294
000100 f4 aa 9e bd 32 32 fe be dd 3b 58 3f 52 f7 01 bf
       -0.077474505 -0.4964767 0.84466344 -0.50768006
000110 c5 94 40 3f df 24 0b be 78 92 4e 3e 24 96 8e bc
       0.75227004 -0.13588284 0.20173061 -0.017405577
000120 2b f9 02 3d 30 c7 ae be 1b 03 6d 3f 23 4b 24 be
       0.031975906 -0.34136343 0.92582864 -0.16044287
000130 eb a2 e9 3e ba 7f 3a be 86 53 a5 3e 3c b2 fe be
       0.4563211 -0.18212786 0.32290286 -0.49745357
000140 59 fa 36 bf b5 36 82 be b9 9d 18 bf 13 cd e5 be
       -0.7147575 -0.25432363 -0.59615666 -0.44883022
000150 5c 46 8a be be 89 8b 3e 80 e5 ad 3d 44 09 4c 3f
       -0.27006805 0.27253526 0.08491039 0.7970164
000160 af a6 f8 3e bf 80 de be f3 44 e8 3e 96 3e 45 be
       0.4856467 -0.434576 0.45365104 -0.19262156
000170 8d 6f d3 3e 42 e3 bb bd 8f 05 c2 3e 86 49 36 be
       0.41296044 -0.09174205 0.37894866 -0.17801484
000180 12 2e ad 3e 1d 6a 0d 3f 83 1b 3b 3e ac 71 37 be
       0.3382421 0.5524004 0.18272214 -0.17914456
000190 61 b7 c2 be cd 6e a3 3d d2 86 3b 3d ca 24 23 3f
       -0.38030532 0.07980118 0.04578287 0.6372801
0001a0 7c c5 03 bf 9a 45 0a 3f 75 52 79 bd cd 92 d3 3e
       -0.5147321 0.54012454 -0.060869653 0.41322938
0001b0 e8 bf d5 bc e8 9f c1 bd 01 f2 8e be 73 12 8b 3d
       -0.026092485 -0.09454328 -0.2791901 0.06790628
0001c0 05 3c 18 be a4 95 bd bc 43 3c e2 be 0d f8 42 3f
       -0.14866646 -0.023142643 -0.441866 0.76159745
0001d0 a1 d1 ea be bf 13 24 3f 77 ec 0b be 59 25 18 be
       -0.4586306 0.6409263 -0.13664423 -0.14857997
0001e0 ad 89 09 3f e0 2d 0c bf 12 59 0a 3f 4b 51 4d be
       0.537257 -0.547575 0.5404216 -0.20050542
0001f0 3d 8a e6 3d cd 3f 57 3e 9d ca db 3c 0f 9a 06 3f
       0.112568356 0.21020432 0.026830012 0.52578825
000200 36 87 ff be 0f 09 a4 3d f3 88 01 3f 3e 2c 54 3d
       -0.49907845 0.0800954 0.5059959 0.051800005
000210 e5 92 a2 3e 3f 54 50 be 8a 14 99 bd a0 29 7a bd
       0.31752697 -0.20344637 -0.07474621 -0.061074853
000220 7e f4 58 be e1 7d 23 3f 9e d7 d5 be f5 8e 8c be
       -0.21187016 0.6386395 -0.41766065 -0.27452818
000230 b4 d7 ac be aa aa 64 3f 26 e5 62 3f d9 c8 64 3f
       -0.33758318 0.8932291 0.886309 0.8936897
000240 e6 01 35 3f 7d 70 11 3f 64 66 92 3d 44 a0 d1 3e
       0.7070602 0.5681227 0.07148436 0.40942585
000250 51 4a 18 3f 51 e8 ab be 5e 03 9d 3d 37 03 90 be
       0.594884 -0.3357568 0.07666658 -0.28127453
000260 66 4d 17 be 37 d0 14 3f 96 a1 5d bf 2c d1 05 3f
       -0.14775619 0.5813021 -0.86574686 0.52272296
000270 b3 fa d6 3e 75 1b d0 3d e7 6b 00 3f 9e ed 56 be
       0.41988143 0.10161487 0.50164646 -0.20989081
000280 c7 8b 62 bd 30 ff d2 be e7 d8 30 be 99 d1 09 3f
       -0.055309083 -0.41210318 -0.17270242 0.53835446
000290 50 75 3c 3e d5 1c 8e 3d 90 41 40 3f 11 65 7f 3e
       0.18404126 0.06939093 0.7510004 0.24940898
0002a0 71 ab 37 be 04 ba 2c bd b5 43 b3 be e7 5d a8 be
       -0.17936493 -0.042169586 -0.35012594 -0.32884142
0002b0 5b d4 9c 3e ac 91 1d bf 4e 10 d8 3e d6 60 97 be
       0.30630764 -0.615504 0.4219994 -0.29566067
0002c0 55 4e 3a bd 1f c8 3b be 57 86 c4 be ac ba 66 3d
       -0.04548486 -0.18338059 -0.38383743 0.056330368
0002d0 1e 15 d8 3e 53 fa c1 3d 99 5d fa be 04 92 1d 3f
       0.4220361 0.09471574 -0.48899534 0.6155093
0002e0 26 93 09 3f 29 b0 15 3f 08 40 ec be de f9 24 3f
       0.53740156 0.58471924 -0.46142602 0.6444377
0002f0 4f 07 36 be 26 db dc 3e a2 a0 27 3f e0 fe cc 3e
       -0.17776226 0.43135947 0.6547948 0.40038204
000300 cd 28 06 3e ec 4a f0 3e b9 61 c5 3e a0 c3 8f bd
       0.13101502 0.4693216 0.3855112 -0.070197344
000310 ae d5 d0 be 5a b9 24 be d4 b7 2a 3f 41 8a bc 3e
       -0.40788025 -0.16086331 0.6668675 0.3682423
000320 0e 9a 8f 3e ef 8f 87 3e 7d b2 95 be cc 8d 0c bf
       0.28047222 0.26477 -0.29237738 -0.54903865
000330 c6 49 19 be 86 b1 ef be 24 91 23 bb 6d 65 19 bf
       -0.14969549 -0.46815127 -0.0024958337 -0.5992039
000340 c2 f2 70 be f2 21 a8 3d 62 2b ac bd 13 bf 28 3e
       -0.23530105 0.082095996 -0.08406712 0.16479139
000350 4d 7d 9c 3e 0f 71 c3 3e 96 2b 47 bf 58 a8 51 3f
       0.30564347 0.38172194 -0.7780088 0.818975
000360 62 d9 e7 be 68 ee a6 be 70 e0 0d 3f 59 99 8c 3e
       -0.45283037 -0.32603765 0.5542059 0.27460745
000370 0f 82 57 bf 5e 6d 1f 3f b1 bf 37 3f fa 72 8e be
       -0.8418283 0.62276256 0.7177687 -0.27822095
000380 03 52 a8 3e 11 f9 30 bf c5 c2 10 3f b3 19 11 3f
       0.3287507 -0.69130045 0.56547195 0.5667984
000390 b8 c7 7d 3e 17 5c 29 be 27 73 a6 3e dc de 06 bf
       0.24783218 -0.16539036 0.3250973 -0.52683806
0003a0 23 de c3 be 25 e9 b3 be 22 64 fb be 07 da 13 be
       -0.38255414 -0.35138813 -0.49099833 -0.1443864
0003b0 65 d1 01 3f 4e 9b 44 3f e9 13 a6 be cc ad 32 3f
       0.50710136 0.76799476 -0.32437065 0.69796443
0003c0 76 7b 3d 3f 4d f5 1e 3f 07 3a 35 3f 15 ed aa 3e
       0.7401651 0.6209305 0.7079167 0.33384004
0003d0 63 89 a5 bc 1a 3b 6c 3e 32 dd 9b 3e 9a e9 9f be
       -0.020207113 0.2306942 0.30442196 -0.3123291
0003e0 00 bb 8b be 39 ed ee 3b 60 6c ff bd 26 57 2b 3f
       -0.27291107 0.0072914627 -0.12471843 0.6692985
0003f0 99 20 c9 3e ea 0c 86 3e 1b 67 5c bd 04 39 23 bf
       0.39282683 0.26181728 -0.053809267 -0.63758874

l1.bias f4 [8]
000000 71 3d dc 3e ab 61 fa 3e 6c 07 a0 3f 74 a5 58 3f
       0.43015626 0.4890264 1.2502265 0.8462746
000010 c2 01 39 3f bc 1c 07 3f 6d 42 a8 3e 9b ce 44 3f
       0.7226831 0.5277822 0.3286318 0.76877755

l2.weight f4 [8, 8]
000000 9f 2b ee 3e 50 19 16 3f 94 61 9a 3f 92 f2 87 3f
       0.46517655 0.58632374 1.2061028 1.0620902
000010 50 c6 01 3f a9 fd a2 3f 6c 2e 40 3e 43 59 a4 bf
       0.50693226 1.2733661 0.18767709 -1.283974
000020 f3 09 c9 3f 95 2b 1f 3f 60 9c 3e bf 77 f3 a2 3e
       1.5706161 0.62175876 -0.7445736 0.31826374
000030 c7 93 b7 3f da 6d c2 3f 0a 59 dd 3f 06 7a 16 3f
       1.4341973 1.5189774 1.7292798 0.58779943
000040 d0 be 07 3f 0a 6e 50 bf 10 07 03 40 cf 3e 15 bf
       0.5302553 -0.81417906 2.047306 -0.58298963
000050 e6 2a b8 3f aa 9c 5f bf df e8 2b bf f7 70 8c 3e
       1.4388092 -0.87348425 -0.6715221 0.27429935
000060 fc cd 48 bf 02 bb d9 be 98 64 e1 3f ba dc b4 be
       -0.7843931 -0.42525488 1.7608824 -0.3532465
000070 00 1d ae 3f fb cd 50 bf 5b e1 b4 be c9 db 89 3f
       1.36026 -0.815643 -0.35328183 1.0770198
000080 e7 e7 ee bc ee f4 b3 be 68 d7 90 be 45 d1 e1 3f
       -0.029163314 -0.35147804 -0.28289342 1.7641989
000090 e0 bd a6 bf ed c5 ff 3e 9c cb 36 bf f7 52 71 3f
       -1.3026695 0.49955693 -0.71404433 0.9426722
0000a0 6a 52 ac 3f a0 41 c4 be 36 5a 91 3d 9d db 86 bd
       1.3462651 -0.38331318 0.070972845 -0.06584857
0000b0 9c 59 af bf 2d 5f aa 3e 1c 6c e8 3e 97 b0 8b 3f
       -1.3699222 0.33275738 0.4539498 1.0913266
0000c0 9c 53 74 3e 2b ba 9e bf 65 dc e1 be 4c 89 22 3e
       0.2386002 -1.2400564 -0.4411346 0.15872687
0000d0 26 1f 2e 3d 9a 32 09 bf 01 b1 26 bf 53 74 61 3f
       0.042510174 -0.53592837 -0.65113837 0.8806812
0000e0 0d d3 bf bf d9 13 ee 3f a1 f9 2d 3f 0c 7f 60 3f
       -1.4986283 1.8599807 0.6795903 0.8769386
0000f0 1d ce c9 be c1 09 d0 3c 75 35 20 3f bd 72 9f 3e
       -0.39415064 0.025395276 0.6258157 0.31142226

l2.bias f4 [8]
000000 7b 90 2b 3f 01 aa 12 bf f1 fe 93 3f 3e 20 0b 3f
       0.67017335 -0.57290655 1.1562177 0.5434607
000010 3e 26 4e 3f a4 32 b8 3e 91 7f 65 3f 3c 86 08 3e
       0.805271 0.35976136 0.89647776 0.13332456

l3.weight f4 [16, 8]
000000 8f 04 e0 3e 2e 84 12 3e 29 7a 11 bf 76 ab a9 be
       0.43753478 0.14308235 -0.56827027 -0.33138627
000010 74 5a e9 3e b7 b9 81 3e 80 ac 7c bf 00 9f 81 bf
       0.45576823 0.25337002 -0.98700714 -1.0126648
000020 21 cf 14 bf 59 22 ab 3e 19 60 c0 bf 45 a4 38 be
       -0.58128554 0.33424643 -1.5029327 -0.18031414
000030 3b af 46 3e 92 c9 2e bd f0 b0 76 bf c1 5f 0e 3f
       0.19402783 -0.0426727 -0.96363735 0.5561486
000040 c0 c1 c1 3e 5c 4c 34 3f c0 8b 4c bf d4 1f 9b bf
       0.37843132 0.70429015 -0.7990074 -1.2119088
000050 5c 9c ba bf 84 ef 3d 3e 44 29 2d bf 26 57 a3 be
       -1.4578967 0.18548399 -0.6764109 -0.31902426
000060 05 e0 24 3f 74 8b 18 3e 0a 62 80 bf ef 09 ba bf
       0.64404327 0.14896947 -1.0029919 -1.4534281
000070 8e b3 19 be 7d 65 9a bf 33 63 23 bf 07 4b 1a 3f
       -0.15009901 -1.2062222 -0.6382324 0.6027073
000080 e7 6b d1 3e 41 ce 0f 3e 8d d4 81 be f0 5d f6 bd
       0.40902635 0.14043523 -0.25357476 -0.12029636
000090 19 62 c1 bf 8a 67 88 bf 4a a7 84 be 5b 91 a6 3e
       -1.5108062 -1.0656598 -0.2590888 0.32532772
0000a0 80 07 0f 3f c7 63 ec be e0 ba 63 3f bd 68 b2 3e
       0.5587082 -0.46169874 0.88957024 0.34845534
0000b0 a0 fa 22 bf 69 b0 bb bf 9c f7 27 bf c8 6a ef bf
       -0.63663673 -1.4663211 -0.65612197 -1.8704462
0000c0 4f 64 df 3e 64 a3 fd bf 54 81 a6 3e 3c c8 f4 3e
       0.43631217 -1.9815488 0.32520545 0.47809017
0000d0 05 da c4 bf 6a 89 9c bf 3d 17 4c bf dd 99 89 3f
       -1.5379034 -1.2229435 -0.7972296 1.075008
0000e0 4c a3 6f be dd 4d de 3e f1 94 bd bf a7 82 c9 bf
       -0.23402137 0.4341878 -1.4811078 -1.5742997
0000f0 af 18 0c 3f d6 f1 1d 3f a5 fd dd 3e 66 a1 be bf
       0.54725164 0.6169714 0.43357578 -1.4893005
000100 7e eb de bf bd 14 13 3f e6 03 00 be f7 41 ed 3d
       -1.7415617 0.5745352 -0.12501487 0.115848474
000110 72 c5 a3 bf 89 fb ad 39 4c b8 24 3f 51 76 ab 3e
       -1.279463 0.0003318454 0.64343715 0.33488706
000120 7e 45 95 bf 18 7e b9 be 04 10 f5 bf dd a9 84 be
       -1.1661832 -0.36229014 -1.9145513 -0.25910845
000130 ad 10 6b 3f 70 e1 a0 3d 61 8a 3d 3f 5d d7 45 3e
       0.9182232 0.07855499 0.74039274 0.19320436
000140 42 35 9e bf dc fc 9c bf 69 61 e8 be 70 4e bd 3e
       -1.2360003 -1.2264667 -0.45386818 0.36973906
000150 8a b5 ca 3e 50 39 c5 3e 6a a2 8e bd f4 a8 fd 3e
       0.39591628 0.38520288 -0.06964572 0.49542964
000160 df 8f d7 be 9c 01 bf bf c0 34 c6 3e a6 d5 10 3f
       -0.42101952 -1.4922366 0.3871212 0.56576
000170 88 25 23 bf 1e 00 12 3f 66 ef 20 3f 3c 0b fa be
       -0.63729143 0.5703143 0.62865293 -0.48836696
000180 d6 4d f3 bd d0 66 20 3f 0a 4b 89 3d 60 c2 8c 3d
       -0.118800804 0.6265688 0.06703766 0.068730116
000190 21 5b b8 bf 1d 16 00 3e 83 43 57 bf 9e aa c6 bf
       -1.440281 0.12508436 -0.8408739 -1.5520818
0001a0 6c 7e 81 bf fb fc 13 bf 56 9a be 3e b8 01 06 bf
       -1.0116706 -0.5780789 0.37227124 -0.5234637
0001b0 b4 08 e2 3e 3f cb 49 3f 6f 4d 45 3f ee d2 ad bf
       0.44147265 0.78825754 0.7707128 -1.3579996
0001c0 f8 db 4f 3f d1 e8 c5 bf 74 f7 f7 bd c2 d4 13 bf
       0.8119502 -1.5461675 -0.12107745 -0.5774652
0001d0 24 d9 7d 3f 8a 6c 12 bf 1d 91 d0 3e 17 d0 45 bd
       0.99159455 -0.5719687 0.40735713 -0.048294153
0001e0 3b 6a 9d bf 16 85 5c be c8 f6 0c 3f 02 aa 31 3f
       -1.2298044 -0.21535143 0.5506406 0.69400036
0001f0 a2 91 06 c0 f1 61 7a bf fd bd d7 3e 41 64 bc be
       -2.1026387 -0.97805697 0.42137137 -0.36795238

l3.bias f4 [16]
000000 3c 45 b4 be 8e 98 01 3c 8a 85 f2 bd 2d 5d 8a be
       -0.35209072 0.007909907 -0.11841877 -0.27024212
000010 42 e4 c3 3d 60 cb da 3e 8c ee 60 3e b8 fc 79 be
       0.09565021 0.42733288 0.21965998 -0.24412811
000020 f7 cd b4 3c 7e 6a 36 3d fa 28 ad bd e5 0b 95 bd
       0.022070868 0.044535153 -0.08455081 -0.07277659
000030 48 43 89 be fa 4c 0a be b3 6b fd 3e d1 af cc be
       -0.26809144 -0.13505927 0.4949623 -0.39977887
